===== MODEL SUMMARY =====
----------------------------------------------------------------
        Layer (type)               Output Shape         Param #
================================================================
            Conv2d-1           [-1, 36, 32, 32]           1,008
       BatchNorm2d-2           [-1, 36, 32, 32]              72
            Conv2d-3           [-1, 36, 32, 32]          11,700
       BatchNorm2d-4           [-1, 36, 32, 32]              72
            Conv2d-5           [-1, 36, 32, 32]          11,700
       BatchNorm2d-6           [-1, 36, 32, 32]              72
        BasicBlock-7           [-1, 36, 32, 32]               0
            Conv2d-8           [-1, 36, 32, 32]          11,700
       BatchNorm2d-9           [-1, 36, 32, 32]              72
           Conv2d-10           [-1, 36, 32, 32]          11,700
      BatchNorm2d-11           [-1, 36, 32, 32]              72
       BasicBlock-12           [-1, 36, 32, 32]               0
           Conv2d-13           [-1, 36, 32, 32]          11,700
      BatchNorm2d-14           [-1, 36, 32, 32]              72
           Conv2d-15           [-1, 36, 32, 32]          11,700
      BatchNorm2d-16           [-1, 36, 32, 32]              72
       BasicBlock-17           [-1, 36, 32, 32]               0
           Conv2d-18           [-1, 36, 32, 32]          11,700
      BatchNorm2d-19           [-1, 36, 32, 32]              72
           Conv2d-20           [-1, 36, 32, 32]          11,700
      BatchNorm2d-21           [-1, 36, 32, 32]              72
       BasicBlock-22           [-1, 36, 32, 32]               0
           Conv2d-23           [-1, 72, 16, 16]          23,400
      BatchNorm2d-24           [-1, 72, 16, 16]             144
           Conv2d-25           [-1, 72, 16, 16]          46,728
      BatchNorm2d-26           [-1, 72, 16, 16]             144
           Conv2d-27           [-1, 72, 16, 16]           2,664
      BatchNorm2d-28           [-1, 72, 16, 16]             144
       BasicBlock-29           [-1, 72, 16, 16]               0
           Conv2d-30           [-1, 72, 16, 16]          46,728
      BatchNorm2d-31           [-1, 72, 16, 16]             144
           Conv2d-32           [-1, 72, 16, 16]          46,728
      BatchNorm2d-33           [-1, 72, 16, 16]             144
       BasicBlock-34           [-1, 72, 16, 16]               0
           Conv2d-35           [-1, 72, 16, 16]          46,728
      BatchNorm2d-36           [-1, 72, 16, 16]             144
           Conv2d-37           [-1, 72, 16, 16]          46,728
      BatchNorm2d-38           [-1, 72, 16, 16]             144
       BasicBlock-39           [-1, 72, 16, 16]               0
           Conv2d-40           [-1, 72, 16, 16]          46,728
      BatchNorm2d-41           [-1, 72, 16, 16]             144
           Conv2d-42           [-1, 72, 16, 16]          46,728
      BatchNorm2d-43           [-1, 72, 16, 16]             144
       BasicBlock-44           [-1, 72, 16, 16]               0
           Conv2d-45            [-1, 144, 8, 8]          93,456
      BatchNorm2d-46            [-1, 144, 8, 8]             288
           Conv2d-47            [-1, 144, 8, 8]         186,768
      BatchNorm2d-48            [-1, 144, 8, 8]             288
           Conv2d-49            [-1, 144, 8, 8]          10,512
      BatchNorm2d-50            [-1, 144, 8, 8]             288
       BasicBlock-51            [-1, 144, 8, 8]               0
           Conv2d-52            [-1, 144, 8, 8]         186,768
      BatchNorm2d-53            [-1, 144, 8, 8]             288
           Conv2d-54            [-1, 144, 8, 8]         186,768
      BatchNorm2d-55            [-1, 144, 8, 8]             288
       BasicBlock-56            [-1, 144, 8, 8]               0
           Conv2d-57            [-1, 144, 8, 8]         186,768
      BatchNorm2d-58            [-1, 144, 8, 8]             288
           Conv2d-59            [-1, 144, 8, 8]         186,768
      BatchNorm2d-60            [-1, 144, 8, 8]             288
       BasicBlock-61            [-1, 144, 8, 8]               0
           Conv2d-62            [-1, 144, 8, 8]         186,768
      BatchNorm2d-63            [-1, 144, 8, 8]             288
           Conv2d-64            [-1, 144, 8, 8]         186,768
      BatchNorm2d-65            [-1, 144, 8, 8]             288
       BasicBlock-66            [-1, 144, 8, 8]               0
           Conv2d-67            [-1, 288, 4, 4]         373,536
      BatchNorm2d-68            [-1, 288, 4, 4]             576
           Conv2d-69            [-1, 288, 4, 4]         746,784
      BatchNorm2d-70            [-1, 288, 4, 4]             576
           Conv2d-71            [-1, 288, 4, 4]          41,760
      BatchNorm2d-72            [-1, 288, 4, 4]             576
       BasicBlock-73            [-1, 288, 4, 4]               0
           Conv2d-74            [-1, 288, 4, 4]         746,784
      BatchNorm2d-75            [-1, 288, 4, 4]             576
           Conv2d-76            [-1, 288, 4, 4]         746,784
      BatchNorm2d-77            [-1, 288, 4, 4]             576
       BasicBlock-78            [-1, 288, 4, 4]               0
           Linear-79                  [-1, 288]          83,232
           Linear-80                   [-1, 10]           2,890
================================================================
Total params: 4,608,298
Trainable params: 4,608,298
Non-trainable params: 0
----------------------------------------------------------------
Input size (MB): 0.01
Forward/backward pass size (MB): 11.25
Params size (MB): 17.58
Estimated Total Size (MB): 28.84
----------------------------------------------------------------
None
Initializing fetching CIFAR10 dataset using torchvision
…
